Xmodel(
  (conv): ConvModule(
    (conv1): Conv1d(1, 32, kernel_size=(17,), stride=(1,), padding=(8,))
    (bn1): BatchNorm1d(32, eps=1e-05, momentum=0.1, affine=True, track_running_stats=True)
    (act1): ReLU()
    (conv2): Conv1d(1, 32, kernel_size=(33,), stride=(1,), padding=(16,))
    (bn2): BatchNorm1d(32, eps=1e-05, momentum=0.1, affine=True, track_running_stats=True)
    (act2): ReLU()
    (conv3): Conv1d(1, 32, kernel_size=(65,), stride=(1,), padding=(32,))
    (bn3): BatchNorm1d(32, eps=1e-05, momentum=0.1, affine=True, track_running_stats=True)
    (act3): ReLU()
    (conv4): Conv1d(1, 32, kernel_size=(129,), stride=(1,), padding=(64,))
    (bn4): BatchNorm1d(32, eps=1e-05, momentum=0.1, affine=True, track_running_stats=True)
    (act4): ReLU()
    (conv5): Conv1d(1, 32, kernel_size=(257,), stride=(1,), padding=(128,))
    (bn5): BatchNorm1d(32, eps=1e-05, momentum=0.1, affine=True, track_running_stats=True)
    (act5): ReLU()
    (conv6): Conv1d(1, 32, kernel_size=(513,), stride=(1,), padding=(256,))
    (bn6): BatchNorm1d(32, eps=1e-05, momentum=0.1, affine=True, track_running_stats=True)
    (act6): ReLU()
  )
  (encoder): SelfAttnModule(
    (layers): ModuleList(
      (0-3): 4 x CrossAttnLayer(
        (element_map): Sequential(
          (0): Linear(in_features=92, out_features=672000, bias=True)
          (1): ReLU()
        )
        (cross_attn): MultiheadAttention(
          (out_proj): NonDynamicallyQuantizableLinear(in_features=3500, out_features=3500, bias=True)
        )
        (linear1): Linear(in_features=3500, out_features=192, bias=True)
        (dropout): Dropout(p=0.0, inplace=False)
        (linear2): Linear(in_features=192, out_features=3500, bias=True)
        (norm1): LayerNorm((3500,), eps=1e-05, elementwise_affine=True)
        (norm2): LayerNorm((3500,), eps=1e-05, elementwise_affine=True)
        (dropout1): Dropout(p=0.0, inplace=False)
        (dropout2): Dropout(p=0.0, inplace=False)
      )
    )
  )
  (norm_after): LayerNorm((3500,), eps=1e-05, elementwise_affine=True)
  (cls_head): Sequential(
    (0): Linear(in_features=3500, out_features=14000, bias=True)
    (1): BatchNorm1d(14000, eps=1e-05, momentum=0.1, affine=True, track_running_stats=True)
    (2): ReLU(inplace=True)
    (3): Dropout(p=0.5, inplace=False)
    (4): Linear(in_features=14000, out_features=14000, bias=True)
    (5): BatchNorm1d(14000, eps=1e-05, momentum=0.1, affine=True, track_running_stats=True)
    (6): ReLU(inplace=True)
    (7): Dropout(p=0.5, inplace=False)
    (8): Linear(in_features=14000, out_features=100315, bias=True)
  )
)
